…
2022-08-28 10:10:24,355 - alstm.py[line:74] - INFO: ALSTM parameters setting:
d_feat : 11
hidden_size : 16
num_layers : 2
dropout : 0.0
n_epochs : 200
lr : 0.001
metric : 
batch_size : 32
early_stop : 20
optimizer : adam
loss_type : mse
device : cpu
use_GPU : False
seed : None
2022-08-28 10:10:24,355 - alstm.py[line:74] - INFO: ALSTM parameters setting:
d_feat : 11
hidden_size : 16
num_layers : 2
dropout : 0.0
n_epochs : 200
lr : 0.001
metric : 
batch_size : 32
early_stop : 20
optimizer : adam
loss_type : mse
device : cpu
use_GPU : False
seed : None
2022-08-28 10:10:24,355 - alstm.py[line:117] - INFO: model:
ALSTMModel(
  (net): Sequential(
    (fc_in): Linear(in_features=11, out_features=16, bias=True)
    (act): Tanh()
  )
  (rnn): GRU(16, 16, num_layers=2, batch_first=True)
  (fc_out): Linear(in_features=32, out_features=1, bias=True)
  (att_net): Sequential(
    (att_fc_in): Linear(in_features=16, out_features=8, bias=True)
    (att_dropout): Dropout(p=0.0, inplace=False)
    (att_act): Tanh()
    (att_fc_out): Linear(in_features=8, out_features=1, bias=False)
    (att_softmax): Softmax(dim=1)
  )
)
2022-08-28 10:10:24,355 - alstm.py[line:117] - INFO: model:
ALSTMModel(
  (net): Sequential(
    (fc_in): Linear(in_features=11, out_features=16, bias=True)
    (act): Tanh()
  )
  (rnn): GRU(16, 16, num_layers=2, batch_first=True)
  (fc_out): Linear(in_features=32, out_features=1, bias=True)
  (att_net): Sequential(
    (att_fc_in): Linear(in_features=16, out_features=8, bias=True)
    (att_dropout): Dropout(p=0.0, inplace=False)
    (att_act): Tanh()
    (att_fc_out): Linear(in_features=8, out_features=1, bias=False)
    (att_softmax): Softmax(dim=1)
  )
)
2022-08-28 10:10:24,355 - alstm.py[line:117] - INFO: model:
ALSTMModel(
  (net): Sequential(
    (fc_in): Linear(in_features=11, out_features=16, bias=True)
    (act): Tanh()
  )
  (rnn): GRU(16, 16, num_layers=2, batch_first=True)
  (fc_out): Linear(in_features=32, out_features=1, bias=True)
  (att_net): Sequential(
    (att_fc_in): Linear(in_features=16, out_features=8, bias=True)
    (att_dropout): Dropout(p=0.0, inplace=False)
    (att_act): Tanh()
    (att_fc_out): Linear(in_features=8, out_features=1, bias=False)
    (att_softmax): Softmax(dim=1)
  )
)
2022-08-28 10:10:24,355 - alstm.py[line:117] - INFO: model:
ALSTMModel(
  (net): Sequential(
    (fc_in): Linear(in_features=11, out_features=16, bias=True)
    (act): Tanh()
  )
  (rnn): GRU(16, 16, num_layers=2, batch_first=True)
  (fc_out): Linear(in_features=32, out_features=1, bias=True)
  (att_net): Sequential(
    (att_fc_in): Linear(in_features=16, out_features=8, bias=True)
    (att_dropout): Dropout(p=0.0, inplace=False)
    (att_act): Tanh()
    (att_fc_out): Linear(in_features=8, out_features=1, bias=False)
    (att_softmax): Softmax(dim=1)
  )
)
2022-08-28 10:10:24,355 - alstm.py[line:117] - INFO: model:
ALSTMModel(
  (net): Sequential(
    (fc_in): Linear(in_features=11, out_features=16, bias=True)
    (act): Tanh()
  )
  (rnn): GRU(16, 16, num_layers=2, batch_first=True)
  (fc_out): Linear(in_features=32, out_features=1, bias=True)
  (att_net): Sequential(
    (att_fc_in): Linear(in_features=16, out_features=8, bias=True)
    (att_dropout): Dropout(p=0.0, inplace=False)
    (att_act): Tanh()
    (att_fc_out): Linear(in_features=8, out_features=1, bias=False)
    (att_softmax): Softmax(dim=1)
  )
)
2022-08-28 10:10:24,355 - alstm.py[line:117] - INFO: model:
ALSTMModel(
  (net): Sequential(
    (fc_in): Linear(in_features=11, out_features=16, bias=True)
    (act): Tanh()
  )
  (rnn): GRU(16, 16, num_layers=2, batch_first=True)
  (fc_out): Linear(in_features=32, out_features=1, bias=True)
  (att_net): Sequential(
    (att_fc_in): Linear(in_features=16, out_features=8, bias=True)
    (att_dropout): Dropout(p=0.0, inplace=False)
    (att_act): Tanh()
    (att_fc_out): Linear(in_features=8, out_features=1, bias=False)
    (att_softmax): Softmax(dim=1)
  )
)
2022-08-28 10:10:24,355 - alstm.py[line:117] - INFO: model:
ALSTMModel(
  (net): Sequential(
    (fc_in): Linear(in_features=11, out_features=16, bias=True)
    (act): Tanh()
  )
  (rnn): GRU(16, 16, num_layers=2, batch_first=True)
  (fc_out): Linear(in_features=32, out_features=1, bias=True)
  (att_net): Sequential(
    (att_fc_in): Linear(in_features=16, out_features=8, bias=True)
    (att_dropout): Dropout(p=0.0, inplace=False)
    (att_act): Tanh()
    (att_fc_out): Linear(in_features=8, out_features=1, bias=False)
    (att_softmax): Softmax(dim=1)
  )
)
2022-08-28 10:10:24,361 - alstm.py[line:118] - INFO: model size: 0.0035 MB
2022-08-28 10:10:24,361 - alstm.py[line:118] - INFO: model size: 0.0035 MB
2022-08-28 10:10:24,361 - alstm.py[line:118] - INFO: model size: 0.0035 MB
2022-08-28 10:10:24,361 - alstm.py[line:118] - INFO: model size: 0.0035 MB
2022-08-28 10:10:24,361 - alstm.py[line:118] - INFO: model size: 0.0035 MB
…
2022-08-28 10:11:57,824 - alstm.py[line:74] - INFO: ALSTM parameters setting:
d_feat : 11
hidden_size : 16
num_layers : 2
dropout : 0.0
n_epochs : 200
lr : 0.001
metric : 
batch_size : 32
early_stop : 20
optimizer : adam
loss_type : mse
device : cpu
use_GPU : False
seed : None
2022-08-28 10:11:57,824 - alstm.py[line:74] - INFO: ALSTM parameters setting:
d_feat : 11
hidden_size : 16
num_layers : 2
dropout : 0.0
n_epochs : 200
lr : 0.001
metric : 
batch_size : 32
early_stop : 20
optimizer : adam
loss_type : mse
device : cpu
use_GPU : False
seed : None
2022-08-28 10:11:57,828 - alstm.py[line:117] - INFO: model:
ALSTMModel(
  (net): Sequential(
    (fc_in): Linear(in_features=11, out_features=16, bias=True)
    (act): Tanh()
  )
  (rnn): GRU(16, 16, num_layers=2, batch_first=True)
  (fc_out): Linear(in_features=32, out_features=1, bias=True)
  (att_net): Sequential(
    (att_fc_in): Linear(in_features=16, out_features=8, bias=True)
    (att_dropout): Dropout(p=0.0, inplace=False)
    (att_act): Tanh()
    (att_fc_out): Linear(in_features=8, out_features=1, bias=False)
    (att_softmax): Softmax(dim=1)
  )
)
2022-08-28 10:11:57,828 - alstm.py[line:117] - INFO: model:
ALSTMModel(
  (net): Sequential(
    (fc_in): Linear(in_features=11, out_features=16, bias=True)
    (act): Tanh()
  )
  (rnn): GRU(16, 16, num_layers=2, batch_first=True)
  (fc_out): Linear(in_features=32, out_features=1, bias=True)
  (att_net): Sequential(
    (att_fc_in): Linear(in_features=16, out_features=8, bias=True)
    (att_dropout): Dropout(p=0.0, inplace=False)
    (att_act): Tanh()
    (att_fc_out): Linear(in_features=8, out_features=1, bias=False)
    (att_softmax): Softmax(dim=1)
  )
)
2022-08-28 10:11:57,828 - alstm.py[line:117] - INFO: model:
ALSTMModel(
  (net): Sequential(
    (fc_in): Linear(in_features=11, out_features=16, bias=True)
    (act): Tanh()
  )
  (rnn): GRU(16, 16, num_layers=2, batch_first=True)
  (fc_out): Linear(in_features=32, out_features=1, bias=True)
  (att_net): Sequential(
    (att_fc_in): Linear(in_features=16, out_features=8, bias=True)
    (att_dropout): Dropout(p=0.0, inplace=False)
    (att_act): Tanh()
    (att_fc_out): Linear(in_features=8, out_features=1, bias=False)
    (att_softmax): Softmax(dim=1)
  )
)
2022-08-28 10:11:57,828 - alstm.py[line:117] - INFO: model:
ALSTMModel(
  (net): Sequential(
    (fc_in): Linear(in_features=11, out_features=16, bias=True)
    (act): Tanh()
  )
  (rnn): GRU(16, 16, num_layers=2, batch_first=True)
  (fc_out): Linear(in_features=32, out_features=1, bias=True)
  (att_net): Sequential(
    (att_fc_in): Linear(in_features=16, out_features=8, bias=True)
    (att_dropout): Dropout(p=0.0, inplace=False)
    (att_act): Tanh()
    (att_fc_out): Linear(in_features=8, out_features=1, bias=False)
    (att_softmax): Softmax(dim=1)
  )
)
2022-08-28 10:11:57,828 - alstm.py[line:117] - INFO: model:
ALSTMModel(
  (net): Sequential(
    (fc_in): Linear(in_features=11, out_features=16, bias=True)
    (act): Tanh()
  )
  (rnn): GRU(16, 16, num_layers=2, batch_first=True)
  (fc_out): Linear(in_features=32, out_features=1, bias=True)
  (att_net): Sequential(
    (att_fc_in): Linear(in_features=16, out_features=8, bias=True)
    (att_dropout): Dropout(p=0.0, inplace=False)
    (att_act): Tanh()
    (att_fc_out): Linear(in_features=8, out_features=1, bias=False)
    (att_softmax): Softmax(dim=1)
  )
)
2022-08-28 10:11:57,828 - alstm.py[line:117] - INFO: model:
ALSTMModel(
  (net): Sequential(
    (fc_in): Linear(in_features=11, out_features=16, bias=True)
    (act): Tanh()
  )
  (rnn): GRU(16, 16, num_layers=2, batch_first=True)
  (fc_out): Linear(in_features=32, out_features=1, bias=True)
  (att_net): Sequential(
    (att_fc_in): Linear(in_features=16, out_features=8, bias=True)
    (att_dropout): Dropout(p=0.0, inplace=False)
    (att_act): Tanh()
    (att_fc_out): Linear(in_features=8, out_features=1, bias=False)
    (att_softmax): Softmax(dim=1)
  )
)
2022-08-28 10:11:57,828 - alstm.py[line:117] - INFO: model:
ALSTMModel(
  (net): Sequential(
    (fc_in): Linear(in_features=11, out_features=16, bias=True)
    (act): Tanh()
  )
  (rnn): GRU(16, 16, num_layers=2, batch_first=True)
  (fc_out): Linear(in_features=32, out_features=1, bias=True)
  (att_net): Sequential(
    (att_fc_in): Linear(in_features=16, out_features=8, bias=True)
    (att_dropout): Dropout(p=0.0, inplace=False)
    (att_act): Tanh()
    (att_fc_out): Linear(in_features=8, out_features=1, bias=False)
    (att_softmax): Softmax(dim=1)
  )
)
2022-08-28 10:11:57,828 - alstm.py[line:117] - INFO: model:
ALSTMModel(
  (net): Sequential(
    (fc_in): Linear(in_features=11, out_features=16, bias=True)
    (act): Tanh()
  )
  (rnn): GRU(16, 16, num_layers=2, batch_first=True)
  (fc_out): Linear(in_features=32, out_features=1, bias=True)
  (att_net): Sequential(
    (att_fc_in): Linear(in_features=16, out_features=8, bias=True)
    (att_dropout): Dropout(p=0.0, inplace=False)
    (att_act): Tanh()
    (att_fc_out): Linear(in_features=8, out_features=1, bias=False)
    (att_softmax): Softmax(dim=1)
  )
)
2022-08-28 10:11:57,831 - alstm.py[line:118] - INFO: model size: 0.0035 MB
2022-08-28 10:11:57,831 - alstm.py[line:118] - INFO: model size: 0.0035 MB
2022-08-28 10:11:57,831 - alstm.py[line:118] - INFO: model size: 0.0035 MB
2022-08-28 10:11:57,831 - alstm.py[line:118] - INFO: model size: 0.0035 MB
2022-08-28 10:11:57,831 - alstm.py[line:118] - INFO: model size: 0.0035 MB
…
